…
Iteration 850: error is 0.939849 (50 iterations in 0.17 seconds)
Iteration 900: error is 0.936795 (50 iterations in 0.17 seconds)
Iteration 950: error is 0.933824 (50 iterations in 0.17 seconds)
Iteration 999: error is 0.933437 (50 iterations in 0.17 seconds)
Fitting performed in 3.49 seconds.
____________________________________________________________________________________________________
Layer (type)                     Output Shape          Param #     Connected to                     
====================================================================================================
convolution2d_1 (Convolution2D)  (None, 26, 26, 32)    320         convolution2d_input_1[0][0]      
____________________________________________________________________________________________________
activation_1 (Activation)        (None, 26, 26, 32)    0           convolution2d_1[0][0]            
____________________________________________________________________________________________________
convolution2d_2 (Convolution2D)  (None, 24, 24, 32)    9248        activation_1[0][0]               
____________________________________________________________________________________________________
activation_2 (Activation)        (None, 24, 24, 32)    0           convolution2d_2[0][0]            
____________________________________________________________________________________________________
maxpooling2d_1 (MaxPooling2D)    (None, 12, 12, 32)    0           activation_2[0][0]               
____________________________________________________________________________________________________
dropout_1 (Dropout)              (None, 12, 12, 32)    0           maxpooling2d_1[0][0]             
____________________________________________________________________________________________________
flatten_1 (Flatten)              (None, 4608)          0           dropout_1[0][0]                  
____________________________________________________________________________________________________
dense_1 (Dense)                  (None, 128)           589952      flatten_1[0][0]                  
____________________________________________________________________________________________________
activation_3 (Activation)        (None, 128)           0           dense_1[0][0]                    
____________________________________________________________________________________________________
dropout_2 (Dropout)              (None, 128)           0           activation_3[0][0]               
____________________________________________________________________________________________________
dense_2 (Dense)                  (None, 10)            1290        dropout_2[0][0]                  
____________________________________________________________________________________________________
activation_4 (Activation)        (None, 10)            0           dense_2[0][0]                    
====================================================================================================
Total params: 600,810
Trainable params: 600,810
Non-trainable params: 0
____________________________________________________________________________________________________
Training model...
Train on 60000 samples, validate on 10000 samples
Epoch 1/20
 
…
